…
dist_backend='nccl')
[04:48:00.150370] Dataset CachedFolder
    Number of datapoints: 1281153
    Root location: /work/hdd/bdta/aqian1/mar_ebwm/data/cached-imagenet1k-64
[04:48:00.151019] Sampler_train = <torch.utils.data.distributed.DistributedSampler object at 0xfffb58f92850>
[04:48:00.242510] Working with z of shape (1, 16, 16, 16) = 4096 dimensions.
[04:48:00.841814] Loading pre-trained KL-VAE
[04:48:00.842360] Missing keys:
[04:48:00.842579] []
[04:48:00.842765] Unexpected keys:
[04:48:00.842933] []
[04:48:00.843099] Restored from pretrained_models/vae/kl16.ckpt
[04:48:03.946867] Model = MAR(
  (class_emb): Embedding(1000, 768)
  (z_proj): Linear(in_features=16, out_features=768, bias=True)
  (z_proj_ln): LayerNorm((768,), eps=1e-06, elementwise_affine=True)
  (encoder_blocks): ModuleList(
    (0-11): 12 x Block(
      (norm1): LayerNorm((768,), eps=1e-06, elementwise_affine=True)
      (attn): Attention(
        (qkv): Linear(in_features=768, out_features=2304, bias=True)
        (q_norm): Identity()
        (k_norm): Identity()
        (attn_drop): Dropout(p=0.1, inplace=False)
        (proj): Linear(in_features=768, out_features=768, bias=True)
        (proj_drop): Dropout(p=0.1, inplace=False)
      )
      (ls1): Identity()
      (drop_path1): Identity()
      (norm2): LayerNorm((768,), eps=1e-06, elementwise_affine=True)
      (mlp): Mlp(
        (fc1): Linear(in_features=768, out_features=3072, bias=True)
        (act): GELU(approximate='none')
        (drop1): Dropout(p=0.1, inplace=False)
        (norm): Identity()
        (fc2): Linear(in_features=3072, out_features=768, bias=True)
        (drop2): Dropout(p=0.1, inplace=False)
      )
      (ls2): Identity()
      (drop_path2): Identity()
    )
  )
  (encoder_norm): LayerNorm((768,), eps=1e-06, elementwise_affine=True)
  (decoder_embed): Linear(in_features=768, out_features=768, bias=True)
  (decoder_blocks): ModuleList(
    (0-11): 12 x Block(
      (norm1): LayerNorm((768,), eps=1e-06, elementwise_affine=True)
      (attn): Attention(
        (qkv): Linear(in_features=768, out_features=2304, bias=True)
        (q_norm): Identity()
        (k_norm): Identity()
        (attn_drop): Dropout(p=0.1, inplace=False)
        (proj): Linear(in_features=768, out_features=768, bias=True)
        (proj_drop): Dropout(p=0.1, inplace=False)
      )
      (ls1): Identity()
      (drop_path1): Identity()
      (norm2): LayerNorm((768,), eps=1e-06, elementwise_affine=True)
      (mlp): Mlp(
        (fc1): Linear(in_features=768, out_features=3072, bias=True)
        (act): GELU(approximate='none')
        (drop1): Dropout(p=0.1, inplace=False)
        (norm): Identity()
        (fc2): Linear(in_features=3072, out_features=768, bias=True)
        (drop2): Dropout(p=0.1, inplace=False)
      )
      (ls2): Identity()
      (drop_path2): Identity()
    )
  )
  (decoder_norm): LayerNorm((768,), eps=1e-06, elementwise_affine=True)
  (energy_mlp): EnergyMLP(
    (input_proj): Linear(in_features=16, out_features=1024, bias=True)
    (cond_proj): Linear(in_features=768, out_features=1024, bias=True)
    (res_blocks): ModuleList(
      (0-2): 3 x AdaLNResBlock(
        (norm): LayerNorm((1024,), eps=1e-06, elementwise_affine=False)
        (mlp): Sequential(
          (0): Linear(in_features=1024, out_features=1024, bias=True)
          (1): SiLU()
          (2): Linear(in_features=1024, out_features=1024, bias=True)
        )
        (adaLN_modulation): Sequential(
          (0): SiLU()
          (1): Linear(in_features=1024, out_features=3072, bias=True)
        )
      )
    )
    (final_layer): Sequential(
      (0): LayerNorm((1024,), eps=1e-06, elementwise_affine=False)
      (1): Linear(in_features=1024, out_features=1, bias=True)
    )
  )
)
[04:48:03.948256] Number of trainable parameters: 188.171778M
[04:48:03.973745] base lr: 3.00e-04
[04:48:03.974083] actual lr: 2.40e-03
[04:48:03.974288] effective batch size: 2048
[04:48:04.021213] AdamW (
Parameter Group 0
    amsgrad: False
    betas: (0.9, 0.95)
    capturable: False
    decoupled_weight_decay: True
    differentiable: False
…
