…
dist_backend='nccl')
[04:46:27.349576] Dataset CachedFolder
    Number of datapoints: 1281153
    Root location: /work/hdd/bdta/aqian1/mar_ebwm/data/cached-imagenet1k-64
[04:46:27.350178] Sampler_train = <torch.utils.data.distributed.DistributedSampler object at 0xfffb90a962d0>
[04:46:27.439777] Working with z of shape (1, 16, 16, 16) = 4096 dimensions.
[04:46:30.845412] Loading pre-trained KL-VAE
[04:46:30.845928] Missing keys:
[04:46:30.846136] []
[04:46:30.846317] Unexpected keys:
[04:46:30.846498] []
[04:46:30.846678] Restored from pretrained_models/vae/kl16.ckpt
[04:46:33.762610] Model = DEBT(
  (y_embedder): Embedding(1001, 768)
  (input_proj): Linear(in_features=16, out_features=768, bias=True)
  (output_proj): Linear(in_features=768, out_features=16, bias=True)
  (transformer): EBTAdaLN(
    (layers): ModuleList(
      (0-23): 24 x AdaLNTransformerBlock(
        (attention): Attention(
          (wq): Linear(in_features=768, out_features=768, bias=False)
          (wk): Linear(in_features=768, out_features=768, bias=False)
          (wv): Linear(in_features=768, out_features=768, bias=False)
          (wo): Linear(in_features=768, out_features=768, bias=False)
        )
        (feed_forward): FeedForward(
          (w1): Linear(in_features=768, out_features=3072, bias=False)
          (w2): Linear(in_features=3072, out_features=768, bias=False)
          (w3): Linear(in_features=768, out_features=3072, bias=False)
        )
        (attention_norm): RMSNorm()
        (ffn_norm): RMSNorm()
        (adaLN_modulation): Sequential(
          (0): SiLU()
          (1): Linear(in_features=768, out_features=4608, bias=True)
        )
      )
    )
    (norm): RMSNorm()
    (time_embeddings): Embedding(1, 768)
    (final_layer): FinalLayer(
      (linear): Linear(in_features=768, out_features=1, bias=False)
      (adaLN_modulation): Sequential(
        (0): SiLU()
        (1): Linear(in_features=768, out_features=1536, bias=True)
      )
    )
  )
)
[04:46:33.763717] Number of trainable parameters: 313.579793M
[04:46:33.798463] base lr: 3.00e-04
[04:46:33.798759] actual lr: 2.40e-03
[04:46:33.798947] effective batch size: 2048
[04:46:33.848880] AdamW (
Parameter Group 0
    amsgrad: False
    betas: (0.9, 0.95)
    capturable: False
    decoupled_weight_decay: True
    differentiable: False
…
